model/faberGPT.pth (torch, 18209 bytes, 1 tensors)

token_embedding_table.weight f4 [65, 65]
2.5216577 -6.981155 -4.020398 -4.2604027 -4.0824943 -1.0781264 -7.490084 -5.044991
-5.3496447 -2.6926935 -5.1172514 -4.464025 -3.743961 1.6893774 0.9797284 0.5244327
0.11663314 -0.1425376 0.7284304 0.22553173 0.8963563 1.262954 -0.7136914 -0.06458347
0.47039708 0.78130794 0.6255811 0.80009276 0.32706916 -0.4676055 0.02120141 0.9554347
1.8580492 -0.81672657 -1.349413 1.459252 -5.3436184 0.1740662 -5.722984 -1.2881738
-1.7855453 -1.8696945 -1.6694418 -2.461937 -1.7936009 -2.568587 -1.1586788 -2.070374
-3.753996 -3.1487975 -2.4068258 -1.8516814 -2.131661 -1.710618 -1.6467847 -2.1739936
-3.0229967 -1.2018043 -0.5695391 -2.925932 -3.0013394 -1.3030211 -5.6722946 -2.1456013
-4.4306116 -4.519076 -3.7771926 -4.1369724 -3.7006617 -4.612814 -1.3157353 -4.6021137
-4.582269 -6.3786287 -4.7269664 -5.011373 -5.5064745 -6.3181725 -1.8464124 -1.6357989
-1.2010043 -2.558588 -1.1070969 -2.3533375 -1.1636546 -1.5736393 0.66349256 -2.5287786
-2.647403 -1.3244798 -1.1408551 -2.3591118 -1.3409907 -1.8748432 -4.6883054 -1.0060983
-1.592211 -1.5610186 -3.4007695 -1.6823589 -1.5782152 -3.8178673 -1.7695965 -6.0031996
1.8386348 1.360214 1.0271266 1.0037276 0.027098294 1.1456668 0.44789675 1.6605477
1.2040323 -1.7362114 -0.28120765 0.926932 1.6025449 0.813624 1.3120922 0.8220114
-1.4755597 0.084538676 1.7667851 2.3473618 -0.26630864 -0.7603608 1.5952241 -4.940161
0.96280473 -3.5563428 2.6329062 2.4128706 -4.0468163 -5.4544883 -3.4455893 -0.5240738
-4.827412 -1.1024704 -4.3691387 -4.919984 -5.0022635 -3.973606 -3.9832823 -5.078861
-4.231016 -4.501171 -4.513992 -4.5114636 -5.8832116 -4.527785 -3.9646945 -4.14056
-4.1335 -5.113982 -4.334865 -6.958202 -5.158752 -4.088371 -4.6006775 -4.576193
-4.679066 -6.695776 -3.6461637 -4.5147033 -3.6976926 -5.196363 -4.8001137 -4.420322
-4.336239 -5.474308 -5.458299 -6.4465976 -4.6044574 -6.0328865 -5.1656723 -5.185012
-5.291868 -5.5147977 -4.135526 -5.472167 -6.233395 -5.7822037 -5.314894 -3.5572803
-4.939303 -5.2091975 -7.4815345 -5.223878 -3.2499554 -3.7048283 -5.7558293 -4.068736
-5.3373156 -5.4788456 -7.3008842 0.8647637 0.13859898 0.078734614 -0.59951663 -0.022957062
-1.4039806 0.3382233 0.778968 -0.0050108 -0.43000254 -1.5146251 0.15408526 -0.48041078
-0.8738617 0.7124109 -0.47670618 1.2709022 1.371157 0.31819054 -1.7200773 0.17060617
-0.34848672 0.62882143 -1.0103012 -0.446748 1.9740226 0.54264647 -0.56559414 0.20144202
-0.09067164 -1.4579991 -0.04447351 -0.49591178 -0.08918965 -1.373698 0.8970501 -0.9182184
-0.9425427 0.21252231 -0.6668804 -0.3552467 -0.37483212 1.0700264 1.2921733 -0.12113543
0.8263189 0.5447289 0.12376025 -0.6027955 -0.7100965 0.42066163 -0.057705637 -0.57425237
-0.03696423 1.6494116 -1.1085284 0.008957671 0.6994465 -0.11859776 0.39083186 0.20912498
00000000: d762 2140 9f65 dfc0 1aa7 80c0 3855 88c0
00000010: cba3 82c0 0c00 8abf c5ae efc0 9170 a1c0
00000020: 4a30 abc0 1755 2cc0 86c0 a3c0 4bd9 8ec0
00000030: 0f9d 6fc0 853d d83f 7bcf 7a3f 3941 063f
00000040: 5bdd ee3d 60f5 11be 6a7a 3a3f caf1 663e
00000050: 9b77 653f 7aa8 a13f 7bb4 36bf 5744 84bd
00000060: e3d7 f03e cc03 483f 1526 203f e1d2 4c3f
00000070: 9c75 a73e fd69 efbe 94ae ad3c 5e97 743f
00000080: 8ed4 ed3f fe14 51bf 91b9 acbf c5c8 ba3f
00000090: ecfe aac0 693e 323e af22 b7c0 e1e2 a4bf
000000a0: c08c e4bf 2652 efbf 45b0 d5bf 6090 1dc0
000000b0: b794 e5bf bb63 24c0 964f 94bf 0281 04c0
000000c0: 7841 70c0 e685 49c0 6f09 1ac0 e503 edbf
000000d0: 226d 08c0 88f5 dabf d7c9 d2bf b622 0bc0
000000e0: c778 41c0 b9d4 99bf 51cd 11bf 7842 3bc0
000000f0: f215 40c0 65c9 a6bf 7083 b5c0 8851 09c0
00000100: 92c7 8dc0 459c 90c0 86bd 71c0 1462 84c0
00000110: a4d7 6cc0 2c9c 93c0 046a a8bf 8444 93c0
00000120: f3a1 92c0 ba1d ccc0 4f43 97c0 2b5d a0c0
00000130: 0a35 b0c0 782e cac0 3e57 ecbf dc61 d1bf
00000140: 82ba 99bf e8bf 23c0 5ab5 8dbf 159d 16c0
00000150: a2f2 94bf 036d c9bf a6da 293f 82d7 21c0
00000160: 0d6f 29c0 8e88 a9bf 8a07 92bf b0fb 16c0
00000170: 95a5 abbf ddfa efbf 9906 96c0 d4c7 80bf
00000180: 92cd cbbf 75cf c7bf 35a6 59c0 8957 d7bf
00000190: f502 cabf f057 74c0 2382 e2bf 361a c0c0
000001a0: 6358 eb3f 7e1b ae3f e278 833f 257a 803f
000001b0: 3efd dd3c 36a5 923f b952 e53e d48c d43f
000001c0: bb1d 9a3f 2d3c debf 73fa 8fbe 6a4b 6d3f
000001d0: 3120 cd3f aa49 503f a3f2 a73f 576f 523f
000001e0: 24df bcbf 9d22 ad3d 0426 e23f 2d3b 1640
000001f0: 9b59 88be 01a7 42bf 4e30 cc3f cd15 9ec0
00000200: 5f7a 763f 1f9b 63c0 8981 2840 796c 1a40
00000210: 857f 81c0 2b8b aec0 8984 5cc0 b329 06bf
00000220: 297a 9ac0 c01d 8dbf fccf 8bc0 8270 9dc0
00000230: 8b12 a0c0 904f 7ec0 19ee 7ec0 0886 a2c0
00000240: 7c64 87c0 9809 90c0 9f72 90c0 e95d 90c0
00000250: 4543 bcc0 9de3 90c0 8ebd 7dc0 787f 84c0
00000260: a245 84c0 bea5 a3c0 37b7 8ac0 97a9 dec0
00000270: 7f14 a5c0 efd3 82c0 c038 93c0 2c70 92c0
00000280: e9ba 95c0 cc43 d6c0 bf5a 69c0 7378 90c0
00000290: ffa6 6cc0 9b48 a6c0 889a 99c0 4773 8dc0
000002a0: 78c2 8ac0 882d afc0 63aa aec0 874a cec0
000002b0: b757 93c0 680d c1c0 304d a5c0 9eeb a5c0
000002c0: fc56 a9c0 3979 b0c0 3b56 84c0 fe1b afc0
000002d0: f977 c7c0 d007 b9c0 9d13 aac0 7baa 63c0
000002e0: c50e 9ec0 bfb1 a6c0 bb68 efc0 022a a7c0
000002f0: 45ff 4fc0 e81b 6dc0 c12f b8c0 1633 82c0
00000300: 4acb aac0 b452 afc0 d8a0 e9c0 2761 5d3f
00000310: e4ec 0d3e 9d3f a13d ec79 19bf 7310 bcbc
00000320: a3b5 b3bf 9b2b ad3e 726a 473f a331 a4bb
00000330: 4b29 dcbe 3cdf c1bf 87c8 1d3e 67f8 f5be
00000340: 66b5 5fbf 9060 363f d512 f4be ecac a23f
00000350: 1382 af3f dfe9 a23e 7e2b dcbf 62b3 2e3e
00000360: da6c b2be 71fa 203f 8d51 81bf 27bc e4be
00000370: c6ac fc3f e1ea 0a3f c7ca 10bf d146 4e3e
00000380: 0eb2 b9bd b79f babf db29 36bd 26e8 fdbe
00000390: 10a9 b6bd 56d5 afbf 13a5 653f 5c10 6bbf
000003a0: 7a4a 71bf 739f 593e adb8 2abf e5e2 b5be
000003b0: ffe9 bfbe a0f6 883f ef65 a53f da15 f8bd
000003c0: a389 533f 5a73 0b3f 0476 fd3d ce50 1abf
000003d0: e2c8 35bf f660 d73e bf5c 6cbd 3402 13bf
000003e0: ce67 17bd eb1f d33f 42e4 8dbf 32c3 123c
000003f0: ed0e 333f 62e3 f2bd 1d1b c83e dc24 563e
