model/faberGPT.pth (torch, 18779 bytes, 3 tensors)

token_embedding_table.weight f4 [65, 32]
00000000: 5815 ce3d 49f4 bb3e 00f3 963e 5173 01bf
00000010: c946 00c0 dde7 d3bd 6688 8bbe 67a4 fa3c
00000020: a4ad fb3d 9fd5 623e 647a f1bd 973b a6bf
00000030: d0d5 9fbe 3231 c7be d72d 5f3e 7e20 59bf
00000040: f485 3c3e 50f4 3fbf c21e 683f eec4 36bc
00000050: ff11 16be 3400 a53e b05e 7e3e 8fde cc3d
00000060: 2e93 953e 66f3 0abd a134 4c3e a197 173d
00000070: 757c ccbd 0a2e 54be dded 473d 4d42 463e
00000080: f204 85bf 356a 8e3f 9edd 86be 63cf f13d
00000090: f4d0 263f 8bb0 36bc c594 043e 675d 863e
000000a0: b3d0 34be ed86 d6be 91b8 a93d 96e0 16bf
000000b0: a502 3a3f 9a77 9bbd bde3 e4bd 86f5 07bf
000000c0: bcb2 99be ae33 51be 2458 e93e f6a8 043f
000000d0: 8ee6 b83e a923 f6bd 31f1 eb3e 85ea 60bd
000000e0: 28ee f63e 16cb 093e 4946 a03e 155e c53e
000000f0: 4678 bcbe cd8f 44be 91da abbf 6de9 d7be
00000100: dee8 443f 68f8 23bf f938 773f bca4 3a3e
00000110: 6bde b2be bf0b e43f 3862 f7bf 8c25 80bf
00000120: 9eae 30bf 527e 373e fc36 d0bd 791d 973e
00000130: f86c ddbe aa57 de3f 8789 ae3f 9c25 563e
00000140: 541a 8a3f ea09 4dbd ab76 5d3f d075 dfbe
00000150: ffa8 7abf 9695 08bf 6ec8 9abf 5b32 0dbf
00000160: 3620 02bf 295b 2dbf 0d35 0abd 776f 10bf
00000170: ca77 0ebf 6fec 2cc0 bfc1 5b3f 2e6c 7b3f
00000180: 3c7d 683f 3490 2cbf bb65 203f f08d 79bf
00000190: 959f 5d3f 9963 d6be 2d54 223e afe1 f9be
000001a0: 967e f33e 8874 8a3e a846 a23e 1034 46be
000001b0: cca9 59bd 7eeb 673b 8b2e 9abd 578e 0d3e
000001c0: d475 82be 2241 6c3f bbbf 54be 8b48 cbbd
000001d0: 1094 443f 3bcb 783f 513b 623f a99b ba3e
000001e0: f15c 3c3f 9a41 5f3f 841f a03e 5f24 02bd
000001f0: 9a1c 4abe 6c9b 5e3f b820 febd 2129 ad3e
00000200: 5fba b5bf a6e6 703e 139a 97be af8f 8dbf
00000210: 09cf 46bf e6ed 44bf adac 2cbf 2819 663f
00000220: 52f3 0c40 816d e3be 2521 b6be 5271 513f
00000230: b36d 0abf c5e9 c43e 1436 08c0 59ac c43e
00000240: 1896 f2bb 5f3c 5bbe f2ad 0f3e c6bf ad3e
00000250: 4553 73bf 8b0e 43be 4f36 85bf 8298 c83e
00000260: 43b7 d53e 0d0c 233e fe17 5fbf e72d 36bf
00000270: 11a5 733f dc06 be3e 35da 34bf eaf0 c43f
00000280: dd97 fc3e f58a fc3e dacc 81bf bba1 47bf
00000290: 974d 9e3e 10ad 86bc a92c 873e c305 81bd
000002a0: 871f 643f e102 ed3f 5503 5cbe f3ac 563f
000002b0: 7ac4 293e 6057 3a3f bb61 76bd b15a d8bf
000002c0: 132c 6abf 9150 61bf aec9 043d 172d abbf
000002d0: 6fb3 20bf 0b71 503f dac2 573e 9dbd 15bf
000002e0: 7996 1a3f 802f d73f f3d6 8a3f 8c66 24c0
000002f0: d00f d2be 6d2a aabf 8741 f5be 558f de3e
00000300: 40fa 92be fbe9 dabf b3cb 0e40 3cd2 2f3f
00000310: 441b 3fbf 4bc2 713f 551b f2be a1f3 67bf
00000320: f935 36bf 038b 5b3e 2ed8 e03d b2e2 f83e
00000330: ca79 28bf 6411 593f 50b5 ae3f bf15 81bf
00000340: d4cc 4d3b 5f45 93be 8f30 573e 8122 b63e
00000350: acf4 cdbf 5514 07bf 4a64 17c0 6f0b f8be
00000360: 579b 8bbf 7275 40bf 9806 c8be 43d1 2f3d
00000370: 7eba c3bf a236 b0bf 916c b93e 5ce5 313e
00000380: 468d b2bd 349c 50bf 08ab 083f d95a 723f
00000390: 141c a13f bae0 22bf 80d8 51be 3bfe 6ebd
000003a0: faf4 0bbf 4039 083f b64f dc3e d4c7 92bf
000003b0: ee2b d73e e72b 5dbb a1c7 8ebe 375b f4bf
000003c0: e732 783f 5703 ecbd bce0 d83f e97e 8a3f
000003d0: 4111 35bf 50ec 0abe 99b0 87bf 153f 7d3e
000003e0: 3517 293e e12d 063d e365 373f c77a 16be
000003f0: 8052 82bf 63ce dcbe 92d9 f7be 7412 93bf
0.10062665 0.36709812 0.2948227 -0.50566584 -2.0043204 -0.10346959 -0.272525 0.030595971
0.12288979 0.22151802 -0.11790922 -1.2986935 -0.31217813 -0.3890472 0.2179483 -0.84815204
0.18410474 -0.74982166 0.9067193 -0.01115535 -0.14655302 0.32226717 0.24840808 0.10003387
0.29213852 -0.03392353 0.19941951 0.03700984 -0.09984676 -0.20720688 0.04881083 0.19361229
-1.0392134 1.1126162 -0.26340955 0.11807134 0.6516259 -0.01115049 0.12947376 0.26243135
-0.17657737 -0.41899815 0.082871564 -0.5893644 0.72660285 -0.075911716 -0.1117625 -0.53109014
-0.30019176 -0.2042987 0.45575058 0.51820314 0.361134 -0.120185204 0.46082452 -0.054911155
0.48228574 0.13456377 0.31303623 0.3854834 -0.3681051 -0.1919548 -1.3426076 -0.42170277
0.7691783 -0.6405091 0.9657131 0.18226904 -0.34935316 1.7816085 -1.9326849 -1.0011458
-0.69016445 0.17919281 -0.101667374 0.29514673 -0.432472 1.7370503 1.363572 0.20912784
1.0789285 -0.050058283 0.865092 -0.4364457 -0.9791412 -0.5335325 -1.2092416 -0.5515496
-0.508304 -0.67717224 -0.033742 -0.5642008 -0.55651534 -2.7019308 0.8584251 0.98211944
0.9081609 -0.67407537 0.6265523 -0.97482204 0.8657163 -0.41872862 0.15852423 -0.48804995
0.47557515 0.2704203 0.3169453 -0.19355798 -0.053140447 0.0035388167 -0.075284086 0.1382383
-0.2548052 0.92286885 -0.20776264 -0.09925946 0.76788425 0.97185105 0.8837176 0.36446884
0.7357932 0.87209475 0.31274045 -0.031772967 -0.19737473 0.86955905 -0.12408584 0.3382044
-1.4197501 0.23525485 -0.29609737 -1.1059474 -0.7765966 -0.76925504 -0.6745098 0.89882135
2.202351 -0.44419482 -0.35572162 0.8181354 -0.5407364 0.38459602 -2.1283007 0.3841274
-0.0074031465 -0.21409748 0.14031199 0.33935374 -0.95048934 -0.19048516 -1.0407199 0.39178854
0.4174138 0.15922566 -0.87145984 -0.7116379 0.95173746 0.37114608 -0.7064546 1.5386021
0.49334612 0.49324766 -1.0140641 -0.77981156 0.3091857 -0.016439945 0.2640126 -0.06299927
0.89110607 1.8516504 -0.21485646 0.8385765 0.16578856 0.72789574 -0.060151797 -1.6902677
-0.914735 -0.8801356 0.0324189 -1.3373135 -0.62773794 0.8142249 0.21070424 -0.5849245
0.60385853 1.6811371 1.0846847 -2.568759 -0.4102769 -1.3294197 -0.47901556 0.4346873
-0.2870655 -1.7102655 2.2311828 0.6868017 -0.7465098 0.9443709 -0.47286478 -0.90606123
-0.71176106 0.21439748 0.10978733 0.48610455 -0.65810835 0.8479216 1.3649082 -1.0084761
0.0031402605 -0.28763863 0.21014617 0.355732 -1.6090293 -0.527654 -2.3654962 -0.48446223
-1.0906781 -0.7517921 -0.3906753 0.042924177 -1.5291288 -1.3766673 0.36215642 0.1737265
-0.08718352 -0.8148835 0.5338597 0.9466987 1.2586694 -0.63624156 -0.20492744 -0.05834792
-0.5467068 0.53212357 0.43029565 -1.1467233 0.42025703 -0.0033748092 -0.2788668 -1.9090337
0.9695267 -0.115240745 1.6943583 1.081998 -0.7072945 -0.13566709 -1.0600768 0.24731095
0.16512759 0.032758597 0.7163984 -0.14695273 -1.0181427 -0.4312621 -0.4840818 -1.1490006

lm_head.weight f4 [65, 32]
00000000: 15be 563f 6e54 27bf e5b7 cf3e 5c16 a6be
00000010: 3a61 5bbf 8762 ce3e 07bc cbbe 11b2 b7be
00000020: e543 c4bd 64f0 2f3e a936 d43d 6115 08bf
00000030: a8fd b3be 3646 8b3d 86f2 b43e 329e a5be
00000040: f41e 20bd ad68 99be e3ca f33e becb 703d
00000050: 9969 09bf 26d5 74be c2ab 86be a9c5 663e
00000060: 2046 d0be 8261 d3bc 2466 73bd 8b40 b8be
00000070: 30b9 4cbe 3ffa 15bf 65cb 643e 4aeb 543e
00000080: bc43 7f3d e4f6 28bf b4ff f63e 2d0c 263e
00000090: 7bba 3ebe 1cba d23e a125 97be 6f48 cebe
000000a0: 31a5 babc 5330 8e3d dc33 80be 7188 463f
000000b0: 4e2a a8be 0acb 113f 86a0 b43e 6fd0 123e
000000c0: a9c2 74be ca85 6bbe c65f 76be a370 9fbe
000000d0: c280 a0be c55a 5bbe d840 12bf 89d9 4ebe
000000e0: 4171 ddbe dd49 f33d 1d22 9dbe a07c 99be
000000f0: 4d03 68be fcca dbbe a7d4 c7bc d746 05bd
00000100: 5cda 4b3f 8537 2bbf a6f8 59bd 1250 c13d
00000110: 4ae4 9e3d 970d bdbc a83a f6bd 93a9 a73b
00000120: f482 cdbd 6cfb 44be 32da 4f3e 6a9a e1bb
00000130: dfda 1b3e 3025 f7bc dfb6 d0bc d5de 033f
00000140: 4be4 3ebe e558 b53e fe91 3dbf 7bd3 673c
00000150: c819 00bf 3d9e 37be d989 39bd b1d1 ca3e
00000160: 6f23 f9be 5508 203e 90a0 b2bc 13c5 34be
00000170: fb92 5f3e 778d 333e 37e3 003f 7768 1a3e
00000180: 7237 df3f 0a2b 1fbf 890a 71bf ee0f 39bf
00000190: 8de8 0a3f 93d8 21bf 732c 843f 5dc4 043e
000001a0: 73eb 5abe f3cd bb3e c005 8f3f 0411 d9be
000001b0: 2c05 fb3e c36c 70bf f21a b6be 4dfb b83f
000001c0: e1b7 1a3f 3015 913f 5d79 cbbf c08c d43d
000001d0: 3273 9cbf cbdc 883f 92d1 1f3f bef7 473f
000001e0: 70e4 a0bf 8651 01bf 5fee 913f 7434 053f
000001f0: c5f2 963f f82b ab3f 463e 5b3f 2ab4 5c3f
00000200: ea62 ce3f 2399 90be e388 3fbf aaf1 f3be
00000210: f56c b03e 5bd9 03bf 8a3c 543f 0c17 633d
00000220: 67f2 7ebe c935 553e 4a25 983f 3bec b2be
00000230: 347c 073f 2c0b 5ebf 1273 f3be 5d1a 6a3f
00000240: ed14 633f 8d14 843f 65a9 c1bf 9198 1bbd
00000250: ac18 55bf b294 0c3f 3c31 d53e bcba 563f
00000260: 9742 88bf 7b95 23bf 53c6 2f3f 168e fc3e
00000270: fca2 5a3f 7cde 553f 8315 9e3f 78f3 1e3f
00000280: 54b8 cb3d 1c46 14be ce18 fe3b 7566 c7bd
00000290: 5690 2bbe cf94 023f 6466 49be 6fbb 023e
000002a0: 20e3 b1bd 78fc bdbe e331 ff3e 0a89 3c3d
000002b0: e82b be3c 601a a8be 0a2f c23e b14a 413d
000002c0: 60d1 a8be 775f b93d cf5d bd3e 5aa5 3d3b
000002d0: 9bdf 96be f0be 70be 98b4 04be 29db 38bd
000002e0: 53d3 45be bb38 f8be fc0d 4a3d 1d0f 2a3d
000002f0: f9a8 57bd c0b6 04bf 5804 a83e b183 6b3e
00000300: b7c5 873e ce80 25bf 28b6 1c3c 8a17 9e3e
00000310: 822d 1fbe 35d2 643e 56bd 71be fcf4 f6bc
00000320: bef2 633d 1a6b 21be e529 923d fa93 f63e
00000330: a5bf 793b 5de0 5d3e 5121 e23b 802f 543f
00000340: 2133 12bf e270 0d3e 6b5c 14bf e129 88bd
00000350: eb86 bb3d 2764 61be 2023 d4be c43c a03d
00000360: eef2 00bf 9162 323e 89af d9bd 635f d5be
00000370: 165a 123e a752 04bd b240 ae3e b1df e8bd
00000380: 1bcb 783f 59b9 5ebf 24a9 e33a 62c0 293e
00000390: d3a8 b63e 4faa d7bd 5302 ed3c 423f 6bbe
000003a0: 0979 0abf 54da b83e fac0 fe3d f508 30be
000003b0: 8454 253e 68d2 49bc b1d3 143e 20a9 0a3e
000003c0: 60dd 033f b0e4 4a3f 8aa9 8dbd 199f dd3e
000003d0: af72 25bf aa45 c23d eb58 a7be 01c7 883e
000003e0: 4b18 0ebf f1b3 a2be 67d9 bf3d 0b1c eabd
000003f0: 6b92 97be 833a e4bd a0f8 273f 57bc 0c3e
0.8388379 -0.65363204 0.40569988 -0.32438934 -0.8569523 0.40309545 -0.3979189 -0.3587804
-0.09583262 0.17181545 0.10361988 -0.5315762 -0.35154462 0.06800501 0.3534128 -0.32347256
-0.03909202 -0.29962674 0.47615728 0.058788054 -0.53676754 -0.23909435 -0.26302916 0.22536339
-0.406785 -0.025803331 -0.05942358 -0.35986742 -0.19992518 -0.5858497 0.22343214 0.2079288
0.062320456 -0.66001725 0.4824196 0.16215582 -0.18625824 0.41157615 -0.29520896 -0.40289637
-0.022783848 0.06942811 -0.25039566 0.77551943 -0.32844776 0.5695044 0.3527872 0.14337324
-0.23902382 -0.23000255 -0.24059972 -0.31140622 -0.31348234 -0.21421345 -0.57130194 -0.2020017
-0.43250468 0.11879323 -0.3069009 -0.29977894 -0.22657509 -0.42928302 -0.024393393 -0.03253826
0.79630065 -0.6688159 -0.053215645 0.094391 0.077583864 -0.02307777 -0.120229065 0.0051166504
-0.10034743 -0.19236535 0.20298079 -0.0068848627 0.15220211 -0.0301691 -0.025477825 0.5151189
-0.18641774 0.35419384 -0.7405089 0.014149542 -0.5003934 -0.17931457 -0.045297477 0.39613107
-0.48659846 0.15628178 -0.021805078 -0.17653303 0.21833412 0.17534433 0.503467 0.15078913
1.7438796 -0.6217505 -0.941567 -0.7228993 0.54261094 -0.6322109 1.0326065 0.12965532
-0.21378879 0.36680564 1.117363 -0.42395794 0.49027383 -0.9391596 -0.35567433 1.4451691
0.60436827 1.1334591 -1.5896412 0.103784084 -1.2222655 1.0692381 0.62429154 0.781124
-1.2569714 -0.5051502 1.140087 0.5203316 1.1792837 1.3372793 0.85641897 0.8621241
1.6123936 -0.28241834 -0.7481825 -0.47645313 0.34458128 -0.51503533 0.82904875 0.0554419
-0.24897157 0.20821299 1.188638 -0.34945855 0.52923894 -0.86735797 -0.4754873 0.9144648
0.88703805 1.0318772 -1.512982 -0.037987296 -0.8324077 0.5491439 0.41639125 0.83878684
-1.0645322 -0.63899964 0.68661994 0.49327153 0.85404944 0.8354261 1.2350315 0.62090254
0.09947267 -0.1447987 0.007754422 -0.09736339 -0.16754279 0.51008314 -0.19667965 0.12766813
-0.08685899 -0.3710668 0.49842748 0.046029128 0.023214296 -0.32832623 0.37926513 0.047190372
-0.3297224 0.090514116 0.36985633 0.0028937669 -0.29467472 -0.23510337 -0.12959516 -0.045130882
-0.19318895 -0.48480782 0.049329743 0.04151832 -0.05265138 -0.51841354 0.32815814 0.22999455
0.26518032 -0.64649665 0.009564914 0.30877334 -0.15544704 0.22345813 -0.23607382 -0.030146115
0.05565142 -0.15763512 0.07136897 0.48159772 0.0038108614 0.21667619 0.0069009443 0.8288498
-0.57109267 0.13812593 -0.5795352 -0.06648613 0.09156593 -0.22010861 -0.41433048 0.0782409
-0.5037068 0.17420413 -0.10629184 -0.41674337 0.14292178 -0.032305386 0.34033734 -0.11370791
0.97184914 -0.8700157 0.0017369133 0.16577294 0.35675678 -0.10530531 0.028931772 -0.2297335
-0.54090935 0.3610407 0.12439151 -0.17190917 0.16145521 -0.012318231 0.14533879 0.13541079
0.51509666 0.792552 -0.06917103 0.43285444 -0.6462812 0.094859436 -0.32685027 0.26714328
-0.5550582 -0.3177791 0.09367638 -0.1143113 -0.29603896 -0.11143973 0.65613747 0.13743721

lm_head.bias f4 [65]
00000000: 2351 c13d 58fb 4e3f 4391 58bf 5dda 67bf
00000010: 4ea9 85bf ca4d 3dbe 333b 4bbe 8755 3ebf
00000020: b72f 31bf e4b2 9cbf a7d7 1e3e 5edb 3cbf
00000030: 9666 52bf ca8e 76be 4023 23bf d29b 0ebf
00000040: 04c8 31bf d342 70bd cec0 1dbf fc78 43bf
00000050: 5d94 b7be 5a95 e0bd 4aaf 68bf 7ec8 09bf
00000060: 9c64 92be 98c9 e7be d17c bebe 83d8 79be
00000070: 16eb 2fbf 79bc 60bf 9cc5 b1be 72bf 65be
00000080: 5664 98be a2b3 04bf d228 69bf ba73 bcbe
00000090: aab9 90bf 8b17 dbbe 4ca8 84bf c5dc 083f
000000a0: 9cc6 d5be 94dd 97be 26f2 903d 9de8 003f
000000b0: 67cb b33c 593d b7be 72bf 2abb d7eb 133f
000000c0: 61be 74bf 832d 11bf 21ae 643e d58b 47bc
000000d0: de0d 7f3e 0758 533f d6ad 8bbe f0b8 67bf
000000e0: 4e47 923e 6793 c53e 006f 083f 6053 cc3d
000000f0: ff2f e4be dd51 5fbd 0dae 82bf 8301 953e
00000100: 8650 97bf
0.09439304 0.8085227 -0.8459665 -0.9056757 -1.0442293 -0.18486705 -0.19846801 -0.74349254
-0.6921343 -1.2242093 0.15511952 -0.7377223 -0.82187784 -0.24077907 -0.6372566 -0.5570651
-0.69445825 -0.05865748 -0.6162232 -0.7635648 -0.3585538 -0.109659865 -0.9089247 -0.5382155
-0.28592384 -0.4527099 -0.37204602 -0.24398999 -0.6871809 -0.87787586 -0.34721076 -0.22436312
-0.2976405 -0.518366 -0.9107791 -0.36807042 -1.130666 -0.427914 -1.036386 0.5346187
-0.4175309 -0.29661238 0.07077436 0.5035494 0.021947576 -0.35788992 -0.0026054052 0.5778174
-0.95602995 -0.5671007 0.2233205 -0.012179335 0.24907634 0.82556194 -0.27281064 -0.9051657
0.28570026 0.38589022 0.5329437 0.0997684 -0.44567868 -0.05452143 -1.0209366 0.29102716
-1.1821449
